Model: "sequential"
_________________________________________________________________
Layer (type)                 Output Shape              Param #   
=================================================================
random_flip (RandomFlip)     (None, 128, 128, 3)       0         
_________________________________________________________________
random_rotation (RandomRotat (None, 128, 128, 3)       0         
_________________________________________________________________
random_contrast (RandomContr (None, 128, 128, 3)       0         
_________________________________________________________________
random_translation (RandomTr (None, 128, 128, 3)       0         
_________________________________________________________________
random_zoom (RandomZoom)     (None, 128, 128, 3)       0         
_________________________________________________________________
random_crop (RandomCrop)     (None, 128, 128, 3)       0         
_________________________________________________________________
conv2d (Conv2D)              (None, 116, 116, 8)       4064      
_________________________________________________________________
batch_normalization (BatchNo (None, 116, 116, 8)       32        
_________________________________________________________________
dropout (Dropout)            (None, 116, 116, 8)       0         
_________________________________________________________________
max_pooling2d (MaxPooling2D) (None, 58, 58, 8)         0         
_________________________________________________________________
conv2d_1 (Conv2D)            (None, 48, 48, 16)        15504     
_________________________________________________________________
max_pooling2d_1 (MaxPooling2 (None, 24, 24, 16)        0         
_________________________________________________________________
flatten (Flatten)            (None, 9216)              0         
_________________________________________________________________
dense (Dense)                (None, 128)               1179776   
_________________________________________________________________
dense_1 (Dense)              (None, 2)                 258       
=================================================================
Total params: 1,199,634
Trainable params: 1,199,618
Non-trainable params: 16
_________________________________________________________________
Epoch 1
loss: 0.6083 - accuracy: 0.7117 - val_loss: 0.4528 - val_accuracy: 0.7620
Epoch 2
loss: 0.4460 - accuracy: 0.8052 - val_loss: 1.4559 - val_accuracy: 0.6010
Epoch 3
loss: 0.3352 - accuracy: 0.8594 - val_loss: 0.1977 - val_accuracy: 0.9162
…
