Model: "sequential"
_________________________________________________________________
Layer (type)                 Output Shape              Param #
=================================================================
random_flip (RandomFlip)     (None, 128, 128, 3)       0
_________________________________________________________________
random_rotation (RandomRotat (None, 128, 128, 3)       0
_________________________________________________________________
random_contrast (RandomContr (None, 128, 128, 3)       0
_________________________________________________________________
random_translation (RandomTr (None, 128, 128, 3)       0
_________________________________________________________________
random_zoom (RandomZoom)     (None, 128, 128, 3)       0
_________________________________________________________________
random_crop (RandomCrop)     (None, 128, 128, 3)       0
_________________________________________________________________
conv2d (Conv2D)              (None, 116, 116, 8)       4064
_________________________________________________________________
batch_normalization (BatchNo (None, 116, 116, 8)       32
_________________________________________________________________
dropout (Dropout)            (None, 116, 116, 8)       0
_________________________________________________________________
average_pooling2d (AveragePo (None, 58, 58, 8)         0
_________________________________________________________________
conv2d_1 (Conv2D)            (None, 48, 48, 16)        15504
_________________________________________________________________
average_pooling2d_1 (Average (None, 24, 24, 16)        0
_________________________________________________________________
flatten (Flatten)            (None, 9216)              0
_________________________________________________________________
dense (Dense)                (None, 128)               1179776
_________________________________________________________________
dense_1 (Dense)              (None, 2)                 258
=================================================================
Total params: 1,199,634
Trainable params: 1,199,618
Non-trainable params: 16
_________________________________________________________________
Epoch 1
loss: 0.6556 - accuracy: 0.6337 - val_loss: 0.5652 - val_accuracy: 0.6957
Epoch 2
loss: 0.5276 - accuracy: 0.7529 - val_loss: 0.3715 - val_accuracy: 0.8223
Epoch 3
loss: 0.4529 - accuracy: 0.8039 - val_loss: 0.2804 - val_accuracy: 0.8855
…
loss: 0.0902 - accuracy: 0.9679 - val_loss: 0.0348 - val_accuracy: 0.9900
Epoch 47
loss: 0.0839 - accuracy: 0.9699 - val_loss: 0.0619 - val_accuracy: 0.9865
Epoch 48
loss: 0.0800 - accuracy: 0.9716 - val_loss: 0.0294 - val_accuracy: 0.9910
Epoch 49
loss: 0.0853 - accuracy: 0.9707 - val_loss: 0.0272 - val_accuracy: 0.9950
Epoch 50
loss: 0.0868 - accuracy: 0.9709 - val_loss: 0.0236 - val_accuracy: 0.9925
Model: "sequential"
_________________________________________________________________
Layer (type)                 Output Shape              Param #
=================================================================
random_flip (RandomFlip)     (None, 128, 128, 3)       0
_________________________________________________________________
random_rotation (RandomRotat (None, 128, 128, 3)       0
_________________________________________________________________
random_contrast (RandomContr (None, 128, 128, 3)       0
_________________________________________________________________
random_translation (RandomTr (None, 128, 128, 3)       0
_________________________________________________________________
random_zoom (RandomZoom)     (None, 128, 128, 3)       0
_________________________________________________________________
random_crop (RandomCrop)     (None, 128, 128, 3)       0
_________________________________________________________________
conv2d (Conv2D)              (None, 116, 116, 8)       4064
_________________________________________________________________
batch_normalization (BatchNo (None, 116, 116, 8)       32
_________________________________________________________________
dropout (Dropout)            (None, 116, 116, 8)       0
_________________________________________________________________
average_pooling2d (AveragePo (None, 58, 58, 8)         0
_________________________________________________________________
conv2d_1 (Conv2D)            (None, 48, 48, 16)        15504
_________________________________________________________________
average_pooling2d_1 (Average (None, 24, 24, 16)        0
_________________________________________________________________
flatten (Flatten)            (None, 9216)              0
_________________________________________________________________
dense (Dense)                (None, 128)               1179776
_________________________________________________________________
dense_1 (Dense)              (None, 2)                 258
=================================================================
Total params: 1,199,634
Trainable params: 1,199,618
Non-trainable params: 16
_________________________________________________________________
Model: "sequential"
_________________________________________________________________
Layer (type)                 Output Shape              Param #
=================================================================
random_flip (RandomFlip)     (None, 128, 128, 3)       0
_________________________________________________________________
random_rotation (RandomRotat (None, 128, 128, 3)       0
_________________________________________________________________
random_contrast (RandomContr (None, 128, 128, 3)       0
_________________________________________________________________
random_translation (RandomTr (None, 128, 128, 3)       0
_________________________________________________________________
random_zoom (RandomZoom)     (None, 128, 128, 3)       0
_________________________________________________________________
random_crop (RandomCrop)     (None, 128, 128, 3)       0
_________________________________________________________________
conv2d (Conv2D)              (None, 116, 116, 8)       4064
_________________________________________________________________
batch_normalization (BatchNo (None, 116, 116, 8)       32
_________________________________________________________________
dropout (Dropout)            (None, 116, 116, 8)       0
_________________________________________________________________
average_pooling2d (AveragePo (None, 58, 58, 8)         0
_________________________________________________________________
conv2d_1 (Conv2D)            (None, 48, 48, 16)        15504
_________________________________________________________________
average_pooling2d_1 (Average (None, 24, 24, 16)        0
_________________________________________________________________
flatten (Flatten)            (None, 9216)              0
_________________________________________________________________
dense (Dense)                (None, 128)               1179776
_________________________________________________________________
dense_1 (Dense)              (None, 2)                 258
=================================================================
Total params: 1,199,634
Trainable params: 1,199,618
Non-trainable params: 16
_________________________________________________________________
Model: "sequential"
_________________________________________________________________
Layer (type)                 Output Shape              Param #
=================================================================
random_flip (RandomFlip)     (None, 128, 128, 3)       0
_________________________________________________________________
random_rotation (RandomRotat (None, 128, 128, 3)       0
_________________________________________________________________
random_contrast (RandomContr (None, 128, 128, 3)       0
_________________________________________________________________
random_translation (RandomTr (None, 128, 128, 3)       0
_________________________________________________________________
random_zoom (RandomZoom)     (None, 128, 128, 3)       0
_________________________________________________________________
random_crop (RandomCrop)     (None, 128, 128, 3)       0
_________________________________________________________________
conv2d (Conv2D)              (None, 116, 116, 8)       4064
_________________________________________________________________
batch_normalization (BatchNo (None, 116, 116, 8)       32
_________________________________________________________________
dropout (Dropout)            (None, 116, 116, 8)       0
_________________________________________________________________
average_pooling2d (AveragePo (None, 58, 58, 8)         0
_________________________________________________________________
conv2d_1 (Conv2D)            (None, 48, 48, 16)        15504
_________________________________________________________________
average_pooling2d_1 (Average (None, 24, 24, 16)        0
_________________________________________________________________
flatten (Flatten)            (None, 9216)              0
_________________________________________________________________
dense (Dense)                (None, 128)               1179776
_________________________________________________________________
dense_1 (Dense)              (None, 2)                 258
=================================================================
Total params: 1,199,634
Trainable params: 1,199,618
Non-trainable params: 16
_________________________________________________________________
Model: "sequential"
_________________________________________________________________
Layer (type)                 Output Shape              Param #
=================================================================
random_flip (RandomFlip)     (None, 128, 128, 3)       0
_________________________________________________________________
random_rotation (RandomRotat (None, 128, 128, 3)       0
_________________________________________________________________
random_contrast (RandomContr (None, 128, 128, 3)       0
_________________________________________________________________
random_translation (RandomTr (None, 128, 128, 3)       0
_________________________________________________________________
random_zoom (RandomZoom)     (None, 128, 128, 3)       0
_________________________________________________________________
random_crop (RandomCrop)     (None, 128, 128, 3)       0
_________________________________________________________________
conv2d (Conv2D)              (None, 116, 116, 8)       4064
_________________________________________________________________
batch_normalization (BatchNo (None, 116, 116, 8)       32
_________________________________________________________________
dropout (Dropout)            (None, 116, 116, 8)       0
_________________________________________________________________
average_pooling2d (AveragePo (None, 58, 58, 8)         0
_________________________________________________________________
conv2d_1 (Conv2D)            (None, 48, 48, 16)        15504
_________________________________________________________________
average_pooling2d_1 (Average (None, 24, 24, 16)        0
_________________________________________________________________
flatten (Flatten)            (None, 9216)              0
_________________________________________________________________
dense (Dense)                (None, 128)               1179776
_________________________________________________________________
dense_1 (Dense)              (None, 2)                 258
=================================================================
Total params: 1,199,634
Trainable params: 1,199,618
Non-trainable params: 16
_________________________________________________________________
Model: "sequential"
_________________________________________________________________
Layer (type)                 Output Shape              Param #
=================================================================
random_flip (RandomFlip)     (None, 128, 128, 3)       0
_________________________________________________________________
random_rotation (RandomRotat (None, 128, 128, 3)       0
_________________________________________________________________
random_contrast (RandomContr (None, 128, 128, 3)       0
_________________________________________________________________
random_translation (RandomTr (None, 128, 128, 3)       0
_________________________________________________________________
random_zoom (RandomZoom)     (None, 128, 128, 3)       0
_________________________________________________________________
random_crop (RandomCrop)     (None, 128, 128, 3)       0
_________________________________________________________________
conv2d (Conv2D)              (None, 116, 116, 8)       4064
_________________________________________________________________
batch_normalization (BatchNo (None, 116, 116, 8)       32
_________________________________________________________________
dropout (Dropout)            (None, 116, 116, 8)       0
_________________________________________________________________
average_pooling2d (AveragePo (None, 58, 58, 8)         0
_________________________________________________________________
conv2d_1 (Conv2D)            (None, 48, 48, 16)        15504
_________________________________________________________________
average_pooling2d_1 (Average (None, 24, 24, 16)        0
_________________________________________________________________
flatten (Flatten)            (None, 9216)              0
_________________________________________________________________
dense (Dense)                (None, 128)               1179776
_________________________________________________________________
dense_1 (Dense)              (None, 2)                 258
=================================================================
Total params: 1,199,634
Trainable params: 1,199,618
Non-trainable params: 16
_________________________________________________________________
Model: "sequential"
_________________________________________________________________
Layer (type)                 Output Shape              Param #
=================================================================
random_flip (RandomFlip)     (None, 128, 128, 3)       0
_________________________________________________________________
random_rotation (RandomRotat (None, 128, 128, 3)       0
_________________________________________________________________
random_contrast (RandomContr (None, 128, 128, 3)       0
_________________________________________________________________
random_translation (RandomTr (None, 128, 128, 3)       0
_________________________________________________________________
random_zoom (RandomZoom)     (None, 128, 128, 3)       0
_________________________________________________________________
random_crop (RandomCrop)     (None, 128, 128, 3)       0
_________________________________________________________________
conv2d (Conv2D)              (None, 116, 116, 8)       4064
_________________________________________________________________
batch_normalization (BatchNo (None, 116, 116, 8)       32
_________________________________________________________________
dropout (Dropout)            (None, 116, 116, 8)       0
_________________________________________________________________
average_pooling2d (AveragePo (None, 58, 58, 8)         0
_________________________________________________________________
conv2d_1 (Conv2D)            (None, 48, 48, 16)        15504
_________________________________________________________________
average_pooling2d_1 (Average (None, 24, 24, 16)        0
_________________________________________________________________
flatten (Flatten)            (None, 9216)              0
_________________________________________________________________
dense (Dense)                (None, 128)               1179776
_________________________________________________________________
dense_1 (Dense)              (None, 2)                 258
=================================================================
Total params: 1,199,634
Trainable params: 1,199,618
Non-trainable params: 16
_________________________________________________________________
Model: "sequential"
_________________________________________________________________
Layer (type)                 Output Shape              Param #
=================================================================
random_flip (RandomFlip)     (None, 128, 128, 3)       0
_________________________________________________________________
random_rotation (RandomRotat (None, 128, 128, 3)       0
_________________________________________________________________
random_contrast (RandomContr (None, 128, 128, 3)       0
_________________________________________________________________
random_translation (RandomTr (None, 128, 128, 3)       0
_________________________________________________________________
random_zoom (RandomZoom)     (None, 128, 128, 3)       0
_________________________________________________________________
random_crop (RandomCrop)     (None, 128, 128, 3)       0
_________________________________________________________________
conv2d (Conv2D)              (None, 116, 116, 8)       4064
_________________________________________________________________
batch_normalization (BatchNo (None, 116, 116, 8)       32
_________________________________________________________________
dropout (Dropout)            (None, 116, 116, 8)       0
_________________________________________________________________
average_pooling2d (AveragePo (None, 58, 58, 8)         0
_________________________________________________________________
conv2d_1 (Conv2D)            (None, 48, 48, 16)        15504
_________________________________________________________________
average_pooling2d_1 (Average (None, 24, 24, 16)        0
_________________________________________________________________
flatten (Flatten)            (None, 9216)              0
_________________________________________________________________
dense (Dense)                (None, 128)               1179776
_________________________________________________________________
dense_1 (Dense)              (None, 1)                 129
=================================================================
Total params: 1,199,505
Trainable params: 1,199,489
Non-trainable params: 16
_________________________________________________________________
Model: "sequential"
_________________________________________________________________
Layer (type)                 Output Shape              Param #
=================================================================
random_flip (RandomFlip)     (None, 128, 128, 3)       0
_________________________________________________________________
random_rotation (RandomRotat (None, 128, 128, 3)       0
_________________________________________________________________
random_contrast (RandomContr (None, 128, 128, 3)       0
_________________________________________________________________
random_translation (RandomTr (None, 128, 128, 3)       0
_________________________________________________________________
random_zoom (RandomZoom)     (None, 128, 128, 3)       0
_________________________________________________________________
random_crop (RandomCrop)     (None, 128, 128, 3)       0
_________________________________________________________________
conv2d (Conv2D)              (None, 116, 116, 8)       4064
_________________________________________________________________
batch_normalization (BatchNo (None, 116, 116, 8)       32
_________________________________________________________________
dropout (Dropout)            (None, 116, 116, 8)       0
_________________________________________________________________
average_pooling2d (AveragePo (None, 58, 58, 8)         0
_________________________________________________________________
conv2d_1 (Conv2D)            (None, 48, 48, 16)        15504
_________________________________________________________________
average_pooling2d_1 (Average (None, 24, 24, 16)        0
_________________________________________________________________
flatten (Flatten)            (None, 9216)              0
_________________________________________________________________
dense (Dense)                (None, 128)               1179776
_________________________________________________________________
dense_1 (Dense)              (None, 2)                 258
=================================================================
Total params: 1,199,634
Trainable params: 1,199,618
Non-trainable params: 16
_________________________________________________________________
Model: "sequential"
_________________________________________________________________
Layer (type)                 Output Shape              Param #
=================================================================
random_flip (RandomFlip)     (None, 128, 128, 3)       0
_________________________________________________________________
random_rotation (RandomRotat (None, 128, 128, 3)       0
_________________________________________________________________
random_contrast (RandomContr (None, 128, 128, 3)       0
_________________________________________________________________
random_translation (RandomTr (None, 128, 128, 3)       0
_________________________________________________________________
random_zoom (RandomZoom)     (None, 128, 128, 3)       0
_________________________________________________________________
random_crop (RandomCrop)     (None, 128, 128, 3)       0
_________________________________________________________________
conv2d (Conv2D)              (None, 116, 116, 8)       4064
_________________________________________________________________
batch_normalization (BatchNo (None, 116, 116, 8)       32
_________________________________________________________________
dropout (Dropout)            (None, 116, 116, 8)       0
_________________________________________________________________
average_pooling2d (AveragePo (None, 58, 58, 8)         0
_________________________________________________________________
conv2d_1 (Conv2D)            (None, 48, 48, 16)        15504
_________________________________________________________________
average_pooling2d_1 (Average (None, 24, 24, 16)        0
_________________________________________________________________
flatten (Flatten)            (None, 9216)              0
_________________________________________________________________
dense (Dense)                (None, 128)               1179776
_________________________________________________________________
dense_1 (Dense)              (None, 2)                 258
=================================================================
Total params: 1,199,634
Trainable params: 1,199,618
Non-trainable params: 16
_________________________________________________________________
Model: "sequential"
_________________________________________________________________
Layer (type)                 Output Shape              Param #
=================================================================
random_flip (RandomFlip)     (None, 128, 128, 3)       0
_________________________________________________________________
random_rotation (RandomRotat (None, 128, 128, 3)       0
_________________________________________________________________
random_contrast (RandomContr (None, 128, 128, 3)       0
_________________________________________________________________
random_translation (RandomTr (None, 128, 128, 3)       0
_________________________________________________________________
random_zoom (RandomZoom)     (None, 128, 128, 3)       0
_________________________________________________________________
random_crop (RandomCrop)     (None, 128, 128, 3)       0
_________________________________________________________________
conv2d (Conv2D)              (None, 116, 116, 8)       4064
_________________________________________________________________
batch_normalization (BatchNo (None, 116, 116, 8)       32
_________________________________________________________________
dropout (Dropout)            (None, 116, 116, 8)       0
_________________________________________________________________
average_pooling2d (AveragePo (None, 58, 58, 8)         0
_________________________________________________________________
conv2d_1 (Conv2D)            (None, 48, 48, 16)        15504
_________________________________________________________________
average_pooling2d_1 (Average (None, 24, 24, 16)        0
_________________________________________________________________
flatten (Flatten)            (None, 9216)              0
_________________________________________________________________
dense (Dense)                (None, 128)               1179776
_________________________________________________________________
dense_1 (Dense)              (None, 2)                 258
=================================================================
Total params: 1,199,634
Trainable params: 1,199,618
Non-trainable params: 16
_________________________________________________________________
Model: "sequential"
_________________________________________________________________
Layer (type)                 Output Shape              Param #
=================================================================
random_flip (RandomFlip)     (None, 128, 128, 3)       0
_________________________________________________________________
random_rotation (RandomRotat (None, 128, 128, 3)       0
_________________________________________________________________
random_contrast (RandomContr (None, 128, 128, 3)       0
_________________________________________________________________
random_translation (RandomTr (None, 128, 128, 3)       0
_________________________________________________________________
random_zoom (RandomZoom)     (None, 128, 128, 3)       0
_________________________________________________________________
random_crop (RandomCrop)     (None, 128, 128, 3)       0
_________________________________________________________________
conv2d (Conv2D)              (None, 116, 116, 8)       4064
_________________________________________________________________
batch_normalization (BatchNo (None, 116, 116, 8)       32
_________________________________________________________________
dropout (Dropout)            (None, 116, 116, 8)       0
_________________________________________________________________
average_pooling2d (AveragePo (None, 58, 58, 8)         0
_________________________________________________________________
conv2d_1 (Conv2D)            (None, 48, 48, 16)        15504
_________________________________________________________________
average_pooling2d_1 (Average (None, 24, 24, 16)        0
_________________________________________________________________
flatten (Flatten)            (None, 9216)              0
_________________________________________________________________
dense (Dense)                (None, 128)               1179776
_________________________________________________________________
dense_1 (Dense)              (None, 2)                 258
=================================================================
Total params: 1,199,634
Trainable params: 1,199,618
Non-trainable params: 16
_________________________________________________________________
Model: "sequential"
_________________________________________________________________
Layer (type)                 Output Shape              Param #
=================================================================
random_flip (RandomFlip)     (None, 128, 128, 3)       0
_________________________________________________________________
random_rotation (RandomRotat (None, 128, 128, 3)       0
_________________________________________________________________
random_contrast (RandomContr (None, 128, 128, 3)       0
_________________________________________________________________
random_translation (RandomTr (None, 128, 128, 3)       0
_________________________________________________________________
random_zoom (RandomZoom)     (None, 128, 128, 3)       0
_________________________________________________________________
random_crop (RandomCrop)     (None, 128, 128, 3)       0
_________________________________________________________________
conv2d (Conv2D)              (None, 116, 116, 8)       4064
_________________________________________________________________
batch_normalization (BatchNo (None, 116, 116, 8)       32
_________________________________________________________________
dropout (Dropout)            (None, 116, 116, 8)       0
_________________________________________________________________
average_pooling2d (AveragePo (None, 58, 58, 8)         0
_________________________________________________________________
conv2d_1 (Conv2D)            (None, 48, 48, 16)        15504
_________________________________________________________________
average_pooling2d_1 (Average (None, 24, 24, 16)        0
_________________________________________________________________
flatten (Flatten)            (None, 9216)              0
_________________________________________________________________
dense (Dense)                (None, 128)               1179776
_________________________________________________________________
dense_1 (Dense)              (None, 2)                 258
=================================================================
Total params: 1,199,634
Trainable params: 1,199,618
Non-trainable params: 16
_________________________________________________________________
Model: "sequential"
_________________________________________________________________
Layer (type)                 Output Shape              Param #
=================================================================
random_flip (RandomFlip)     (None, 128, 128, 3)       0
_________________________________________________________________
random_rotation (RandomRotat (None, 128, 128, 3)       0
_________________________________________________________________
random_contrast (RandomContr (None, 128, 128, 3)       0
_________________________________________________________________
random_translation (RandomTr (None, 128, 128, 3)       0
_________________________________________________________________
random_zoom (RandomZoom)     (None, 128, 128, 3)       0
_________________________________________________________________
random_crop (RandomCrop)     (None, 128, 128, 3)       0
_________________________________________________________________
conv2d (Conv2D)              (None, 116, 116, 8)       4064
_________________________________________________________________
batch_normalization (BatchNo (None, 116, 116, 8)       32
_________________________________________________________________
dropout (Dropout)            (None, 116, 116, 8)       0
_________________________________________________________________
average_pooling2d (AveragePo (None, 58, 58, 8)         0
_________________________________________________________________
conv2d_1 (Conv2D)            (None, 48, 48, 16)        15504
_________________________________________________________________
average_pooling2d_1 (Average (None, 24, 24, 16)        0
_________________________________________________________________
flatten (Flatten)            (None, 9216)              0
_________________________________________________________________
dense (Dense)                (None, 128)               1179776
_________________________________________________________________
dense_1 (Dense)              (None, 2)                 258
=================================================================
Total params: 1,199,634
Trainable params: 1,199,618
Non-trainable params: 16
_________________________________________________________________
Epoch 1
loss: 0.0005 - accuracy: 0.9997 - val_loss: 391.5450 - val_accuracy: 0.0000
Epoch 2
loss: 0.0000 - accuracy: 1.0000 - val_loss: 405.8045 - val_accuracy: 0.0000
Epoch 3
loss: 0.0000 - accuracy: 1.0000 - val_loss: 408.5115 - val_accuracy: 0.0000
Epoch 4
loss: 0.0000 - accuracy: 1.0000 - val_loss: 414.7581 - val_accuracy: 0.0000
Model: "sequential"
_________________________________________________________________
Layer (type)                 Output Shape              Param #
=================================================================
random_flip (RandomFlip)     (None, 128, 128, 3)       0
_________________________________________________________________
random_rotation (RandomRotat (None, 128, 128, 3)       0
_________________________________________________________________
random_contrast (RandomContr (None, 128, 128, 3)       0
_________________________________________________________________
random_translation (RandomTr (None, 128, 128, 3)       0
_________________________________________________________________
random_zoom (RandomZoom)     (None, 128, 128, 3)       0
_________________________________________________________________
random_crop (RandomCrop)     (None, 128, 128, 3)       0
_________________________________________________________________
conv2d (Conv2D)              (None, 116, 116, 8)       4064
_________________________________________________________________
batch_normalization (BatchNo (None, 116, 116, 8)       32
_________________________________________________________________
dropout (Dropout)            (None, 116, 116, 8)       0
_________________________________________________________________
average_pooling2d (AveragePo (None, 58, 58, 8)         0
_________________________________________________________________
conv2d_1 (Conv2D)            (None, 48, 48, 16)        15504
_________________________________________________________________
average_pooling2d_1 (Average (None, 24, 24, 16)        0
_________________________________________________________________
flatten (Flatten)            (None, 9216)              0
_________________________________________________________________
dense (Dense)                (None, 128)               1179776
_________________________________________________________________
dense_1 (Dense)              (None, 2)                 258
=================================================================
Total params: 1,199,634
Trainable params: 1,199,618
Non-trainable params: 16
_________________________________________________________________
Epoch 1
loss: 0.0008 - accuracy: 0.9994 - val_loss: 163.8231 - val_accuracy: 0.0000
Epoch 2
loss: 0.0000 - accuracy: 1.0000 - val_loss: 166.0246 - val_accuracy: 0.0000
Epoch 3
loss: 0.0000 - accuracy: 1.0000 - val_loss: 164.8604 - val_accuracy: 0.0000
Epoch 4
loss: 0.0000 - accuracy: 1.0000 - val_loss: 165.8021 - val_accuracy: 0.0000
Epoch 5
loss: 0.0000 - accuracy: 1.0000 - val_loss: 164.8049 - val_accuracy: 0.0000
Model: "sequential"
_________________________________________________________________
Layer (type)                 Output Shape              Param #
=================================================================
random_flip (RandomFlip)     (None, 128, 128, 3)       0
_________________________________________________________________
random_rotation (RandomRotat (None, 128, 128, 3)       0
_________________________________________________________________
random_contrast (RandomContr (None, 128, 128, 3)       0
_________________________________________________________________
random_translation (RandomTr (None, 128, 128, 3)       0
_________________________________________________________________
random_zoom (RandomZoom)     (None, 128, 128, 3)       0
_________________________________________________________________
random_crop (RandomCrop)     (None, 128, 128, 3)       0
_________________________________________________________________
conv2d (Conv2D)              (None, 116, 116, 8)       4064
_________________________________________________________________
batch_normalization (BatchNo (None, 116, 116, 8)       32
_________________________________________________________________
dropout (Dropout)            (None, 116, 116, 8)       0
_________________________________________________________________
average_pooling2d (AveragePo (None, 58, 58, 8)         0
_________________________________________________________________
conv2d_1 (Conv2D)            (None, 48, 48, 16)        15504
_________________________________________________________________
average_pooling2d_1 (Average (None, 24, 24, 16)        0
_________________________________________________________________
flatten (Flatten)            (None, 9216)              0
_________________________________________________________________
dense (Dense)                (None, 128)               1179776
_________________________________________________________________
dense_1 (Dense)              (None, 2)                 258
=================================================================
Total params: 1,199,634
Trainable params: 1,199,618
Non-trainable params: 16
_________________________________________________________________
Model: "sequential"
_________________________________________________________________
Layer (type)                 Output Shape              Param #
=================================================================
random_flip (RandomFlip)     (None, 128, 128, 3)       0
_________________________________________________________________
random_rotation (RandomRotat (None, 128, 128, 3)       0
_________________________________________________________________
random_contrast (RandomContr (None, 128, 128, 3)       0
_________________________________________________________________
random_translation (RandomTr (None, 128, 128, 3)       0
_________________________________________________________________
random_zoom (RandomZoom)     (None, 128, 128, 3)       0
_________________________________________________________________
random_crop (RandomCrop)     (None, 128, 128, 3)       0
_________________________________________________________________
conv2d (Conv2D)              (None, 116, 116, 8)       4064
_________________________________________________________________
batch_normalization (BatchNo (None, 116, 116, 8)       32
_________________________________________________________________
dropout (Dropout)            (None, 116, 116, 8)       0
_________________________________________________________________
average_pooling2d (AveragePo (None, 58, 58, 8)         0
_________________________________________________________________
conv2d_1 (Conv2D)            (None, 48, 48, 16)        15504
_________________________________________________________________
average_pooling2d_1 (Average (None, 24, 24, 16)        0
_________________________________________________________________
flatten (Flatten)            (None, 9216)              0
_________________________________________________________________
dense (Dense)                (None, 128)               1179776
_________________________________________________________________
dense_1 (Dense)              (None, 2)                 258
=================================================================
Total params: 1,199,634
Trainable params: 1,199,618
Non-trainable params: 16
_________________________________________________________________
Model: "sequential"
_________________________________________________________________
Layer (type)                 Output Shape              Param #
=================================================================
random_flip (RandomFlip)     (None, 128, 128, 3)       0
_________________________________________________________________
random_rotation (RandomRotat (None, 128, 128, 3)       0
_________________________________________________________________
random_contrast (RandomContr (None, 128, 128, 3)       0
_________________________________________________________________
random_translation (RandomTr (None, 128, 128, 3)       0
_________________________________________________________________
random_zoom (RandomZoom)     (None, 128, 128, 3)       0
_________________________________________________________________
random_crop (RandomCrop)     (None, 128, 128, 3)       0
_________________________________________________________________
conv2d (Conv2D)              (None, 116, 116, 8)       4064
_________________________________________________________________
batch_normalization (BatchNo (None, 116, 116, 8)       32
_________________________________________________________________
dropout (Dropout)            (None, 116, 116, 8)       0
_________________________________________________________________
average_pooling2d (AveragePo (None, 58, 58, 8)         0
_________________________________________________________________
conv2d_1 (Conv2D)            (None, 48, 48, 16)        15504
_________________________________________________________________
average_pooling2d_1 (Average (None, 24, 24, 16)        0
_________________________________________________________________
flatten (Flatten)            (None, 9216)              0
_________________________________________________________________
dense (Dense)                (None, 128)               1179776
_________________________________________________________________
dense_1 (Dense)              (None, 2)                 258
=================================================================
Total params: 1,199,634
Trainable params: 1,199,618
Non-trainable params: 16
_________________________________________________________________
Epoch 1
loss: 0.0005 - accuracy: 0.9999 - val_loss: 286.0339 - val_accuracy: 0.0000
Model: "sequential"
_________________________________________________________________
Layer (type)                 Output Shape              Param #
=================================================================
random_flip (RandomFlip)     (None, 128, 128, 3)       0
_________________________________________________________________
random_rotation (RandomRotat (None, 128, 128, 3)       0
_________________________________________________________________
random_contrast (RandomContr (None, 128, 128, 3)       0
_________________________________________________________________
random_translation (RandomTr (None, 128, 128, 3)       0
_________________________________________________________________
random_zoom (RandomZoom)     (None, 128, 128, 3)       0
_________________________________________________________________
random_crop (RandomCrop)     (None, 128, 128, 3)       0
_________________________________________________________________
conv2d (Conv2D)              (None, 116, 116, 8)       4064
_________________________________________________________________
batch_normalization (BatchNo (None, 116, 116, 8)       32
_________________________________________________________________
dropout (Dropout)            (None, 116, 116, 8)       0
_________________________________________________________________
average_pooling2d (AveragePo (None, 58, 58, 8)         0
_________________________________________________________________
conv2d_1 (Conv2D)            (None, 48, 48, 16)        15504
_________________________________________________________________
average_pooling2d_1 (Average (None, 24, 24, 16)        0
_________________________________________________________________
flatten (Flatten)            (None, 9216)              0
_________________________________________________________________
dense (Dense)                (None, 128)               1179776
_________________________________________________________________
dense_1 (Dense)              (None, 2)                 258
=================================================================
Total params: 1,199,634
Trainable params: 1,199,618
Non-trainable params: 16
_________________________________________________________________
Model: "sequential"
_________________________________________________________________
Layer (type)                 Output Shape              Param #
=================================================================
random_flip (RandomFlip)     (None, 128, 128, 3)       0
_________________________________________________________________
random_rotation (RandomRotat (None, 128, 128, 3)       0
_________________________________________________________________
random_contrast (RandomContr (None, 128, 128, 3)       0
_________________________________________________________________
random_translation (RandomTr (None, 128, 128, 3)       0
_________________________________________________________________
random_zoom (RandomZoom)     (None, 128, 128, 3)       0
_________________________________________________________________
random_crop (RandomCrop)     (None, 128, 128, 3)       0
_________________________________________________________________
conv2d (Conv2D)              (None, 116, 116, 8)       4064
_________________________________________________________________
batch_normalization (BatchNo (None, 116, 116, 8)       32
_________________________________________________________________
dropout (Dropout)            (None, 116, 116, 8)       0
_________________________________________________________________
average_pooling2d (AveragePo (None, 58, 58, 8)         0
_________________________________________________________________
conv2d_1 (Conv2D)            (None, 48, 48, 16)        15504
_________________________________________________________________
average_pooling2d_1 (Average (None, 24, 24, 16)        0
_________________________________________________________________
flatten (Flatten)            (None, 9216)              0
_________________________________________________________________
dense (Dense)                (None, 128)               1179776
_________________________________________________________________
dense_1 (Dense)              (None, 2)                 258
=================================================================
Total params: 1,199,634
Trainable params: 1,199,618
Non-trainable params: 16
_________________________________________________________________
Model: "sequential"
_________________________________________________________________
Layer (type)                 Output Shape              Param #
=================================================================
random_flip (RandomFlip)     (None, 128, 128, 3)       0
_________________________________________________________________
random_rotation (RandomRotat (None, 128, 128, 3)       0
_________________________________________________________________
random_contrast (RandomContr (None, 128, 128, 3)       0
_________________________________________________________________
random_translation (RandomTr (None, 128, 128, 3)       0
_________________________________________________________________
random_zoom (RandomZoom)     (None, 128, 128, 3)       0
_________________________________________________________________
random_crop (RandomCrop)     (None, 128, 128, 3)       0
_________________________________________________________________
conv2d (Conv2D)              (None, 116, 116, 8)       4064
_________________________________________________________________
batch_normalization (BatchNo (None, 116, 116, 8)       32
_________________________________________________________________
dropout (Dropout)            (None, 116, 116, 8)       0
_________________________________________________________________
average_pooling2d (AveragePo (None, 58, 58, 8)         0
_________________________________________________________________
conv2d_1 (Conv2D)            (None, 48, 48, 16)        15504
_________________________________________________________________
average_pooling2d_1 (Average (None, 24, 24, 16)        0
_________________________________________________________________
flatten (Flatten)            (None, 9216)              0
_________________________________________________________________
dense (Dense)                (None, 128)               1179776
_________________________________________________________________
dense_1 (Dense)              (None, 2)                 258
=================================================================
Total params: 1,199,634
Trainable params: 1,199,618
Non-trainable params: 16
_________________________________________________________________
Epoch 1
loss: 0.5927 - accuracy: 0.6950 - val_loss: 0.4524 - val_accuracy: 0.7650
Epoch 2
loss: 0.4639 - accuracy: 0.7876 - val_loss: 0.5458 - val_accuracy: 0.7635
Epoch 3
loss: 0.3381 - accuracy: 0.8576 - val_loss: 0.4447 - val_accuracy: 0.8045
Epoch 4
loss: 0.2559 - accuracy: 0.8964 - val_loss: 0.4109 - val_accuracy: 0.8415
Epoch 5
loss: 0.2469 - accuracy: 0.9032 - val_loss: 0.0967 - val_accuracy: 0.9585
Model: "sequential"
_________________________________________________________________
Layer (type)                 Output Shape              Param #
=================================================================
conv2d (Conv2D)              (None, 116, 116, 8)       4064
_________________________________________________________________
batch_normalization (BatchNo (None, 116, 116, 8)       32
_________________________________________________________________
dropout (Dropout)            (None, 116, 116, 8)       0
_________________________________________________________________
average_pooling2d (AveragePo (None, 58, 58, 8)         0
_________________________________________________________________
conv2d_1 (Conv2D)            (None, 48, 48, 16)        15504
_________________________________________________________________
average_pooling2d_1 (Average (None, 24, 24, 16)        0
_________________________________________________________________
flatten (Flatten)            (None, 9216)              0
_________________________________________________________________
dense (Dense)                (None, 128)               1179776
_________________________________________________________________
dense_1 (Dense)              (None, 2)                 258
=================================================================
Total params: 1,199,634
Trainable params: 1,199,618
Non-trainable params: 16
_________________________________________________________________
Model: "sequential"
_________________________________________________________________
Layer (type)                 Output Shape              Param #
=================================================================
conv2d (Conv2D)              (None, 116, 116, 8)       4064
_________________________________________________________________
batch_normalization (BatchNo (None, 116, 116, 8)       32
_________________________________________________________________
dropout (Dropout)            (None, 116, 116, 8)       0
_________________________________________________________________
average_pooling2d (AveragePo (None, 58, 58, 8)         0
_________________________________________________________________
conv2d_1 (Conv2D)            (None, 48, 48, 16)        15504
_________________________________________________________________
average_pooling2d_1 (Average (None, 24, 24, 16)        0
_________________________________________________________________
flatten (Flatten)            (None, 9216)              0
_________________________________________________________________
dense (Dense)                (None, 128)               1179776
_________________________________________________________________
dense_1 (Dense)              (None, 2)                 258
=================================================================
Total params: 1,199,634
Trainable params: 1,199,618
Non-trainable params: 16
_________________________________________________________________
Model: "sequential"
_________________________________________________________________
Layer (type)                 Output Shape              Param #
=================================================================
conv2d (Conv2D)              (None, 116, 116, 8)       4064
_________________________________________________________________
batch_normalization (BatchNo (None, 116, 116, 8)       32
_________________________________________________________________
dropout (Dropout)            (None, 116, 116, 8)       0
_________________________________________________________________
average_pooling2d (AveragePo (None, 58, 58, 8)         0
_________________________________________________________________
conv2d_1 (Conv2D)            (None, 48, 48, 16)        15504
_________________________________________________________________
average_pooling2d_1 (Average (None, 24, 24, 16)        0
_________________________________________________________________
flatten (Flatten)            (None, 9216)              0
_________________________________________________________________
dense (Dense)                (None, 128)               1179776
_________________________________________________________________
dense_1 (Dense)              (None, 2)                 258
=================================================================
Total params: 1,199,634
Trainable params: 1,199,618
Non-trainable params: 16
_________________________________________________________________
Model: "sequential"
_________________________________________________________________
Layer (type)                 Output Shape              Param #
=================================================================
conv2d (Conv2D)              (None, 116, 116, 8)       4064
_________________________________________________________________
batch_normalization (BatchNo (None, 116, 116, 8)       32
_________________________________________________________________
dropout (Dropout)            (None, 116, 116, 8)       0
_________________________________________________________________
average_pooling2d (AveragePo (None, 58, 58, 8)         0
_________________________________________________________________
conv2d_1 (Conv2D)            (None, 48, 48, 16)        15504
_________________________________________________________________
average_pooling2d_1 (Average (None, 24, 24, 16)        0
_________________________________________________________________
flatten (Flatten)            (None, 9216)              0
_________________________________________________________________
dense (Dense)                (None, 128)               1179776
_________________________________________________________________
dense_1 (Dense)              (None, 2)                 258
=================================================================
Total params: 1,199,634
Trainable params: 1,199,618
Non-trainable params: 16
_________________________________________________________________
Model: "sequential"
_________________________________________________________________
Layer (type)                 Output Shape              Param #
=================================================================
rescaling (Rescaling)        (None, 128, 128, 3)       0
_________________________________________________________________
conv2d (Conv2D)              (None, 116, 116, 8)       4064
_________________________________________________________________
batch_normalization (BatchNo (None, 116, 116, 8)       32
_________________________________________________________________
dropout (Dropout)            (None, 116, 116, 8)       0
_________________________________________________________________
average_pooling2d (AveragePo (None, 58, 58, 8)         0
_________________________________________________________________
conv2d_1 (Conv2D)            (None, 48, 48, 16)        15504
_________________________________________________________________
average_pooling2d_1 (Average (None, 24, 24, 16)        0
_________________________________________________________________
flatten (Flatten)            (None, 9216)              0
_________________________________________________________________
dense (Dense)                (None, 128)               1179776
_________________________________________________________________
dense_1 (Dense)              (None, 2)                 258
=================================================================
Total params: 1,199,634
Trainable params: 1,199,618
Non-trainable params: 16
_________________________________________________________________
Epoch 1
loss: 0.0654 - accuracy: 0.9771 - val_loss: 12.1983 - val_accuracy: 0.5191
Epoch 2
loss: 0.0338 - accuracy: 0.9894 - val_loss: 0.4006 - val_accuracy: 0.9328
Epoch 3
loss: 0.0238 - accuracy: 0.9932 - val_loss: 0.1925 - val_accuracy: 0.9514
…
loss: 0.0253 - accuracy: 0.9936 - val_loss: 0.1686 - val_accuracy: 0.9629
Epoch 2
loss: 0.0182 - accuracy: 0.9950 - val_loss: 0.1027 - val_accuracy: 0.9751
Epoch 3
loss: 0.0175 - accuracy: 0.9954 - val_loss: 0.1608 - val_accuracy: 0.9671
Epoch 4
loss: 0.0153 - accuracy: 0.9958 - val_loss: 0.2722 - val_accuracy: 0.9643
Epoch 5
loss: 0.0132 - accuracy: 0.9965 - val_loss: 0.6813 - val_accuracy: 0.9662
Model: "sequential"
_________________________________________________________________
Layer (type)                 Output Shape              Param #
=================================================================
rescaling (Rescaling)        (None, 128, 128, 3)       0
_________________________________________________________________
conv2d (Conv2D)              (None, 116, 116, 8)       4064
_________________________________________________________________
batch_normalization (BatchNo (None, 116, 116, 8)       32
_________________________________________________________________
dropout (Dropout)            (None, 116, 116, 8)       0
_________________________________________________________________
average_pooling2d (AveragePo (None, 58, 58, 8)         0
_________________________________________________________________
conv2d_1 (Conv2D)            (None, 48, 48, 16)        15504
_________________________________________________________________
average_pooling2d_1 (Average (None, 24, 24, 16)        0
_________________________________________________________________
flatten (Flatten)            (None, 9216)              0
_________________________________________________________________
dense (Dense)                (None, 128)               1179776
_________________________________________________________________
dense_1 (Dense)              (None, 2)                 258
=================================================================
Total params: 1,199,634
Trainable params: 1,199,618
Non-trainable params: 16
_________________________________________________________________
Epoch 1
loss: 0.0206 - accuracy: 0.9948 - val_loss: 0.1435 - val_accuracy: 0.9748
Epoch 2
loss: 0.0173 - accuracy: 0.9955 - val_loss: 0.2104 - val_accuracy: 0.9616
Epoch 3
loss: 0.0146 - accuracy: 0.9963 - val_loss: 0.1931 - val_accuracy: 0.9779
Epoch 4
loss: 0.0151 - accuracy: 0.9959 - val_loss: 0.0921 - val_accuracy: 0.9811
Epoch 5
loss: 0.0114 - accuracy: 0.9968 - val_loss: 0.1440 - val_accuracy: 0.9781
Model: "sequential"
_________________________________________________________________
Layer (type)                 Output Shape              Param #
=================================================================
rescaling (Rescaling)        (None, 128, 128, 3)       0
_________________________________________________________________
conv2d (Conv2D)              (None, 116, 116, 8)       4064
_________________________________________________________________
batch_normalization (BatchNo (None, 116, 116, 8)       32
_________________________________________________________________
dropout (Dropout)            (None, 116, 116, 8)       0
_________________________________________________________________
average_pooling2d (AveragePo (None, 58, 58, 8)         0
_________________________________________________________________
conv2d_1 (Conv2D)            (None, 48, 48, 16)        15504
_________________________________________________________________
average_pooling2d_1 (Average (None, 24, 24, 16)        0
_________________________________________________________________
flatten (Flatten)            (None, 9216)              0
_________________________________________________________________
dense (Dense)                (None, 128)               1179776
_________________________________________________________________
dense_1 (Dense)              (None, 2)                 258
=================================================================
Total params: 1,199,634
Trainable params: 1,199,618
Non-trainable params: 16
_________________________________________________________________
Model: "sequential"
_________________________________________________________________
Layer (type)                 Output Shape              Param #
=================================================================
rescaling (Rescaling)        (None, 128, 128, 3)       0
_________________________________________________________________
conv2d (Conv2D)              (None, 116, 116, 8)       4064
_________________________________________________________________
batch_normalization (BatchNo (None, 116, 116, 8)       32
_________________________________________________________________
dropout (Dropout)            (None, 116, 116, 8)       0
_________________________________________________________________
average_pooling2d (AveragePo (None, 58, 58, 8)         0
_________________________________________________________________
conv2d_1 (Conv2D)            (None, 48, 48, 16)        15504
_________________________________________________________________
average_pooling2d_1 (Average (None, 24, 24, 16)        0
_________________________________________________________________
flatten (Flatten)            (None, 9216)              0
_________________________________________________________________
dense (Dense)                (None, 128)               1179776
_________________________________________________________________
dense_1 (Dense)              (None, 2)                 258
=================================================================
Total params: 1,199,634
Trainable params: 1,199,618
Non-trainable params: 16
_________________________________________________________________
Epoch 1
loss: 0.0721 - accuracy: 0.9753 - val_loss: 0.2416 - val_accuracy: 0.9176
Epoch 2
loss: 0.0363 - accuracy: 0.9879 - val_loss: 0.0334 - val_accuracy: 0.9902
